assets/humor_model.tflite (tflite, 766714 bytes, 5 tensors)

sequential/embedding/embedding_lookup/207942 f4 [10003, 16]
00000000: b7ef cdbd 01d6 d83c 0d38 9abc 62ac 93bc
00000010: 6997 293c a311 fa3d b28d 983c 24d6 a8bd
00000020: f22e 973c 035b ccbd b664 cabc e394 ad3d
00000030: 61b1 3d3d d9db b53c 2708 003e 540c 933e
00000040: fe30 4d3d 386b 5f3e 633c 3fbe d2b1 a93d
00000050: b3c1 01be 9b12 d3bb c8ee 17be ba31 513d
00000060: d903 f03c e2c6 9a3c 4a8c b53d c451 cbbc
00000070: 61b1 0fbe 9cbf e9bd d488 8cbd c2d5 f13e
00000080: eef7 fcbe 4feb 883e 8f1e 053f 3853 19bf
00000090: 605d f53f 4ade 4e3e 99d5 b93d 5b90 f63e
000000a0: 10e0 08bf 5d4c a9be 41d6 7dbe 5e86 e5be
000000b0: ffd6 cb3e bb8a 6abc 651c 1c3e 4930 03c0
000000c0: 316c e93e 75bf b43f 88bf b23d c003 aa3e
000000d0: fa3a e53f 3e34 49bf d290 7bbf cf26 af3f
000000e0: f61f f7be 804a 163f 6792 053f e60a aabf
000000f0: 8139 17bf cbc1 51bf 3006 3abf 74b6 62bf
00000100: 357c 4b3f 91f3 d03f fd0d bebe be66 023f
00000110: 7e88 0740 f048 89bf 2627 adbf 5df7 0040
00000120: 68e3 5fbf f5fe 5f3f 139f 7b3e 5831 f9bf
00000130: 25b3 57bf 908e 8ebf c707 99bf 2794 9fbf
00000140: f4f3 0fbf e15f 98bc 367a f33e 48eb 12bf
00000150: 5db3 723e 2c8b 213f 552c ba3e 3f47 06bf
00000160: b922 9d3e 3801 1dbf 7c8d 9cbe a544 e13e
00000170: 77cb 143f 5a23 fb3e d04e 153f b9c2 873e
00000180: 241e ed3e 8a62 a53f 83b0 873d 826e 7c3e
00000190: 4fbe da3f 9110 35bf 6158 84bf 7afd b23f
000001a0: 7dcf 00bf f5a0 1b3f 67bd 6e3e 0fea b6bf
000001b0: 60bf 02bf e373 41bf 21c7 3abf 25fc 22bf
000001c0: c8de afbe f942 193f fd90 fe3e 277e 06bf
000001d0: f9ff 1940 eacf 483d 71cf 3fbe 215d 5f3f
000001e0: e325 fabe 0a64 52be 320d acbd e475 42bf
000001f0: 4aad 753e a872 0fbe 4043 cebc 1b82 f2bf
00000200: 407e 8ebe e036 0a3f c56b 123f 7743 02bf
00000210: 400a 1a40 0040 36bd d12e 6fbe 68ca 663f
00000220: 8541 14bf 7173 0bbe 74d7 03bd bd08 5cbf
00000230: 2f11 453e 7cc2 5cbe c1bc d4bd e2a2 00c0
00000240: 2f5c 2e40 c2a4 1f40 cc7a 1cc0 12b5 2e40
00000250: 5f4e 7abf db1e 31c0 9f9a 3dc0 b8b4 2d40
00000260: 9034 a03e 4e91 2c40 752d 7a3f 9cf5 33c0
00000270: b68f 2cc0 f5af 31c0 7c50 2fc0 b45b 5040
00000280: f4cb 13bf e7f2 813d 2b17 fe3e 6f68 33bf
00000290: 86b8 483f deb6 e43e 976f 893e 44a8 0dbe
000002a0: 801f 4d39 c0a3 18bf 4524 fabe 39b2 3d3e
000002b0: 9f4e 033f 2b95 bf3e 86ac d93e 5708 b6be
000002c0: 498c cc3f 35a6 0b40 9ac6 97bf 20e5 ba3f
000002d0: a7d5 4b3f da19 f1bf 3add 00c0 d1d4 1940
000002e0: ed4b 31be 154b db3f dba3 163f fb9c 17c0
000002f0: 4978 d3bf 231a f2bf 1210 f8bf db1e 113f
00000300: d9bf a73f b763 e33f 9fa5 30bf a62b 953f
00000310: abeb ba3f 9e55 c7bf b31e d3bf 997b 0240
00000320: 2c83 bbbe f0cf b13f 5d79 113f 3ffc 07c0
00000330: 0d03 aebf 2b2b d0bf be6b c6bf 005f ee3d
00000340: bbae 10bf a72c c03e d301 023f 4a10 28bf
00000350: 765e f03f dfbd 933e a839 4e3d a539 ac3e
00000360: 57d1 bdbe fb4c f4be 267f c3be da54 9bbe
00000370: 5205 0f3f 735e d73d af64 6d3e 28ed b8bf
00000380: 1d49 1f40 89d5 3c40 4217 d5bf 062d 0640
00000390: f34f c63f c51f 36c0 9f4f 3ac0 c681 6040
000003a0: 7979 04bf 6780 2740 a71b 973f 5fb1 64c0
000003b0: 52bc 1cc0 b29d 2ec0 9cae 38c0 b427 23be
000003c0: e7bd 09bf ee21 ec3e 496c 4d3f f7b0 40bf
000003d0: 65d3 2b40 1632 0b3e fd64 833b 2268 483f
000003e0: bb51 40bf eef6 a9be 59fb fbbd b06e 43bf
000003f0: 7b34 f03e 82bf 9eba 69b9 6d3d 72a3 1fc0
-0.100554876 0.026469233 -0.018825555 -0.018026534 0.01035104 0.12210395 0.018622253 -0.08243969
0.018455002 -0.099782966 -0.024706226 0.084756635 0.04631174 0.022199558 0.1250311 0.28720343
0.05009555 0.21818244 -0.1867538 0.0828587 -0.12671547 -0.006441427 -0.14837182 0.051072814
0.02929871 0.018893663 0.08864649 -0.024819262 -0.14032508 -0.114135 -0.068620354 0.47233397
-0.49407905 0.26742026 0.51999754 -0.59892607 1.9169121 0.20201984 0.09073944 0.4815701
-0.5346689 -0.33066073 -0.24788763 -0.44829077 0.39812467 -0.0143153025 0.15245207 -2.049822
0.45590356 1.4120928 0.08727938 0.33205986 1.7908623 -0.7859534 -0.98267853 1.3683718
-0.48266572 0.5870743 0.5217652 -1.3284576 -0.5907212 -0.8193633 -0.7266569 -0.8855965
0.794864 1.632433 -0.37120047 0.5093802 2.1177058 -1.0725384 -1.3527572 2.0150979
-0.8745637 0.8749841 0.24572401 -1.9468184 -0.8425773 -1.1137257 -1.1955498 -1.2467088
-0.5623162 -0.018600406 0.47554177 -0.5739026 0.23701234 0.63102984 0.36361948 -0.5245246
0.30690554 -0.61329985 -0.30576694 0.43997684 0.5812296 0.4905041 0.58323383 0.2651575
0.46312058 1.2920697 0.06625464 0.2465153 1.7089328 -0.70728403 -1.0339471 1.3983605
-0.503166 0.60792476 0.23314439 -1.4290179 -0.51073265 -0.75567454 -0.72960097 -0.6366599
-0.34349656 0.5986782 0.49719992 -0.52536243 2.4062483 0.049026407 -0.18731476 0.8725148
-0.4885703 -0.20545974 -0.08400954 -0.75961137 0.23991886 -0.14008582 -0.025178552 -1.8945955
-0.27830696 0.5398998 0.57195693 -0.50884193 2.4068756 -0.04449463 -0.23357703 0.901526
-0.57912475 -0.13618256 -0.032187894 -0.85950834 0.19244836 -0.21558565 -0.103875645 -2.0099416
2.7243764 2.494431 -2.444995 2.7298017 -0.97775835 -2.7675083 -2.9625623 2.7141552
0.31290102 2.6963687 0.9772561 -2.8118658 -2.6962714 -2.7763646 -2.7392874 3.255597
-0.5773308 0.06345158 0.4962705 -0.7008123 0.7840656 0.44670767 0.2684295 -0.1383372
0.00019562058 -0.5962486 -0.48855796 0.18525018 0.5129184 0.37418494 0.42514437 -0.35553238
1.5980312 2.1820195 -1.1857483 1.4601173 0.7962288 -1.8836014 -2.0135026 2.4036143
-0.1731412 1.7132288 0.58843774 -2.3689563 -1.6521083 -1.8914226 -1.9379904 0.56687707
1.3105422 1.7764806 -0.6900272 1.1653945 1.460317 -1.5573003 -1.6493744 2.0387938
-0.36623514 1.3891582 0.5682581 -2.1247709 -1.3594681 -1.6263174 -1.550163 0.116392136
-0.5651662 0.37534067 0.50784034 -0.65649855 1.8778827 0.28855798 0.050347954 0.3363773
-0.37073776 -0.4771498 -0.38182944 -0.30338174 0.55867493 0.10516062 0.23182939 -1.4447374
2.4888375 2.9505332 -1.6647723 2.096498 1.5493149 -2.845689 -2.9111097 3.5079207
-0.5174785 2.617212 1.1805314 -3.5733259 -2.4489942 -2.728375 -2.8856573 -0.15933114
-0.53805393 0.46119636 0.80243355 -0.75270027 2.6847775 0.13593325 0.0040098415 0.78283894
-0.7512471 -0.33196205 -0.123038 -0.7634077 0.4691504 -0.0012111517 0.05803815 -2.494351

sequential/dense_1/BiasAdd/ReadVariableOp/resource f4 [2]
00000000: bf3e e63e b73e e6be
0.44969746 -0.44969723

sequential/dense/BiasAdd/ReadVariableOp/resource f4 [16]
00000000: 631f f53e ecb3 fc3e c634 f6be ab83 e3be
00000010: 7f2c 89bd 826d f8be a672 febe db20 f2be
00000020: d143 05bf 9477 0a3f 58ef d4be 2187 aabe
00000030: 4b6e c6bd 231b febe cd62 09bf 1d95 e83e
0.4787551 0.4935602 -0.48087138 -0.44436392 -0.0669794 -0.48521048 -0.49696845 -0.47290692
-0.52056605 0.5408871 -0.41588855 -0.3330622 -0.096890055 -0.4963008 -0.53666383 0.45426264

sequential/dense/MatMul f4 [16, 16]
00000000: 8780 bd3f b40e 0cbe 0c71 c1bc ebe3 dc3e
00000010: 9c53 0f3f 3db6 06c0 9ae6 323e 45e6 e73e
00000020: 8adc cbbe 837e 833f c761 35bd 7469 b3bd
00000030: da97 3fbe 43d7 cbbe 253f 5bbf b718 fb3d
00000040: 2de7 d13f cd92 a73e 6d68 94bd 810e e53d
00000050: d5f8 0a3f 8be4 10c0 6320 8e3e 2863 e03e
00000060: 310b 883d 77b8 693f b08b 6eb9 f280 c8be
00000070: 3aa2 9fbe 1253 6dbe 7f23 6bbe 3690 30be
00000080: 73db cebf 01b5 ffbd 413f 43be 26c5 26bf
00000090: 6e11 99bd 0954 ad3f e0d8 0c3e d4c8 e7be
000000a0: 41fd 70bd 62a9 2dbf fef3 cc3d 17e0 1a3f
000000b0: f251 843e b262 1b3f 7907 5f3f 3803 523e
000000c0: 4c37 abbf fd10 7d3e dc76 2bbd 1e97 50be
000000d0: 92a2 a7bd 60f1 f53f 892d 17be 5e0e 35bf
000000e0: c28e 383f d06e 78bf 9c5d b13d b215 e93e
000000f0: 2acc fa3e c9d9 1f3f 7c30 183f 7a4f b3be
00000100: deeb b53e b0be 87be e334 cc3e 22eb 81bd
00000110: 1bbe 19be 3ac6 69be 990f f0bd 4d18 f2bd
00000120: 9692 a83e bd44 6c3e 8193 833e 2f76 3abc
00000130: b6c5 38bd d9ea 593e f938 7abe b7c8 a5bc
00000140: 31be 09c0 c256 b5be 9bf0 97be 8e29 09bf
00000150: 4870 0bbf 0016 0340 c559 8b3e 2ad7 c4be
00000160: 7442 f23e 8705 8fbf 49dd f13d 00b8 ed3e
00000170: 4c31 053f b421 bbbe 6cd2 133f 9e72 56be
00000180: 5ad0 b5bf 18e9 8ebe acb7 423d fcb8 723d
00000190: 6f26 b0bd 33fa fd3f 44a5 323e fb9f 48be
000001a0: c338 403f b055 9cbf 8f75 043e 2738 2e3f
000001b0: 26ca a5bd ac8f bf3e 6576 6b3f 80cf 6abe
000001c0: e86c 03c0 8b74 663e 196e 713e f519 91be
000001d0: 0468 36bf 3e5f 0e40 34bd 873e ea03 23bf
000001e0: ed24 a73e 2a66 79bf e3c1 70bd 41d7 3c3e
000001f0: e19f 823e 03c4 943d be78 5f3e 35da 7cbe
00000200: e572 dcbf 8ddd e13d dacf 13bd 4e9a 13be
00000210: ec0c 0ebf e16e fb3f 6e0d 28be 32e6 b6be
00000220: 73dd 453e ff33 93bf 7097 283d 4b25 c63e
00000230: da74 f63e ec20 e53d e45d 1a3f 9f16 583d
00000240: 72db e33f 7681 f23e fc9e 543e 20a5 d53d
00000250: a0f5 873f 5a6e 16c0 9e63 52be 2c1c 9c3d
00000260: 7248 26bd f3a0 863f c2b4 473e 37da 36bf
00000270: 37cc 77be 8760 c43c 054a 36bf 0040 69be
00000280: 782d eebf 13c1 533e 6791 b23d 8bb6 68be
00000290: 0f6b 36bf 9d2b ef3f fbba 9b3e b416 ccbe
000002a0: a7b0 b53e f4b5 5dbf 7fb8 463e 8232 473f
000002b0: 9b47 103f 6da9 db3e 1cfa 1d3e dec5 87be
000002c0: a494 4dbf 35cf 183e 7a53 58be 2a6a 96be
000002d0: 14d3 273e 944f 903f 251d 453f 1342 75bf
000002e0: b3cb 3b3f 13bc e2be 665e 42be 6794 2f3f
000002f0: 7b87 cf3e 3964 5d3f c799 453e 8fce 5ebe
00000300: 6cdf b8be 3b89 8e3e 5f8c 473e c7b7 443e
00000310: 0125 dbbd f98c 1ebe d652 443e 39fd 9fbe
00000320: 1c91 b6be 81aa c1be b1ac b73e 6333 863d
00000330: 5412 95be 1453 833e 9fad bdbe 6058 503e
00000340: d680 d8bf 73ad 34be 77fd 973c 3801 f7be
00000350: a3a4 d7be 3faa 0240 7e15 153e 2569 28be
00000360: bfa5 7d3e 210f 6dbf 8e72 bc3b a86c 953d
00000370: 36c4 5b3e fbd1 a93e 4d23 383f 9a16 743d
00000380: 7213 adbf 32c9 5fbe 0a4a a33d 1afe 10bf
00000390: 35d6 ddbd d832 0340 745c dabb 553d b5be
000003a0: d3f2 103e 6d73 a2bf 2378 123f a470 c53e
000003b0: 1d85 803d 99cf 3d3e 55be 733f 157a d83d
000003c0: 3aa7 cf3f 818e 72bd 0584 60be 799f 7b3d
000003d0: 9ff7 963f 93b9 1dc0 3f16 febd c3a6 c63e
000003e0: cd2a e7be 8547 8c3f 852e 80be 1c64 e1be
000003f0: 29e5 7a3e 238d 04bd 1e9a 5abf 3fb9 303e
1.4804848 -0.13677484 -0.023613475 0.43142638 0.5598695 -2.104873 0.1747078 0.4529287
-0.39816695 1.0272983 -0.0442827 -0.08760348 -0.1871027 -0.3981267 -0.85643226 0.12260573
1.6398674 0.32729188 -0.0724648 0.11184407 0.5428594 -2.2639492 0.27759084 0.4382565
0.066427596 0.91297096 -0.00022749486 -0.39160877 -0.31178457 -0.2317622 -0.2296276 -0.17242512
-1.616072 -0.12485696 -0.19067098 -0.65144575 -0.074740276 1.354127 0.13754606 -0.45270407
-0.05883527 -0.6783658 0.10007475 0.60498184 0.2584377 0.6069747 0.8712078 0.2050904
-1.337625 0.24713512 -0.0418614 -0.20370147 -0.08185305 1.9214287 -0.14763464 -0.7072505
0.7209283 -0.97044086 0.08660433 0.45524365 0.4898389 0.6244169 0.5944898 -0.35021573
0.35531515 -0.2651267 0.398841 -0.06343676 -0.15013926 -0.22829524 -0.11721725 -0.11821041
0.32924336 0.23073097 0.25698474 -0.011380716 -0.045110427 0.21280994 -0.24435796 -0.02023731
-2.1522334 -0.35417753 -0.29675755 -0.5357903 -0.544682 2.0482178 0.27216926 -0.38445407
0.47316325 -1.1173562 0.11809785 0.46429443 0.52028346 -0.3654915 0.57742953 -0.2094216
-1.4204209 -0.2791221 0.047538444 0.059258446 -0.086010806 1.984198 0.17445856 -0.19592278
0.7508661 -1.221365 0.1293547 0.6805443 -0.080951974 0.374143 0.9197753 -0.22930717
-2.053522 0.22505395 0.23577155 -0.28340116 -0.71252465 2.2245631 0.26511538 -0.6367785
0.3264536 -0.97421515 -0.058778655 0.18441488 0.25512603 0.07263949 0.21823403 -0.24692614
-1.7222563 0.110285856 -0.036086895 -0.14414331 -0.5548847 1.9643213 -0.16411373 -0.357225
0.19322757 -1.1500243 0.041160047 0.38700327 0.48136026 0.1118792 0.60299516 0.05275595
1.7801344 0.47364396 0.20763773 0.10431886 1.0621834 -2.3504853 -0.20545813 0.07622561
-0.040596433 1.0517868 0.19502547 -0.7142672 -0.24198996 0.02397181 -0.71206695 -0.2277832
-1.8607626 0.2067912 0.087191395 -0.22725885 -0.7125711 1.8685185 0.30416092 -0.3986107
0.35486338 -0.86605763 0.19406317 0.77811444 0.5635926 0.429027 0.1542744 -0.26518148
-0.8030493 0.14922793 -0.21125594 -0.29377872 0.16389114 1.1274285 0.76997596 -0.95803946
0.73357695 -0.44284114 -0.18981323 0.6858582 0.4053305 0.8648105 0.19296943 -0.21758483
-0.36107957 0.27839074 0.19487141 0.1921073 -0.10700417 -0.15483464 0.19172224 -0.3124788
-0.35657585 -0.37825397 0.3587394 0.0655277 -0.29115546 0.2564932 -0.37046525 0.20346212
-1.6914318 -0.1764429 0.018553479 -0.48243117 -0.42117795 2.041641 0.1455898 -0.1644636
0.24770258 -0.9260121 0.0057509607 0.07296115 0.21461567 0.33168015 0.71928865 0.059591867
-1.3521559 -0.21854094 0.07973106 -0.5663773 -0.108318724 2.0499783 -0.0066638533 -0.35398355
0.1415513 -1.2691475 0.57214564 0.385625 0.06275389 0.18536223 0.952123 0.1057016
1.6222908 -0.059217934 -0.21925361 0.06143138 1.1794318 -2.4644516 -0.12406587 0.38799104
-0.45149842 1.0959326 -0.25035492 -0.4402169 0.2450148 -0.03236116 -0.85391414 0.17258166

sequential/dense_1/MatMul f4 [2, 16]
00000000: 8c0a 4b40 0cda 1f40 48dc 38bf 16ba 9ebf
00000010: 7c0e d6be cf07 b5bf 09ed b2bf e269 bcbf
00000020: c26c b6bf 0800 2840 e5bc 81bf 1bb1 94bf
00000030: 6f91 823c 6792 82bf bfb8 2bbf cdec 3640
00000040: 2131 13c0 adfc 41c0 575a 9c3f 6808 863f
00000050: be0b 38be 3e6a b13f 68b9 393f 8b9c 653f
00000060: e869 8c3f d08f 2ec0 d7b3 8f3f ccf8 3d3f
00000070: 9f93 15be 6661 c03f 4be6 b63f 261d 41c0
3.1725187 2.4976835 -0.7221112 -1.2400539 -0.41807926 -1.4143008 -1.3978587 -1.4719813
-1.425194 2.625002 -1.0135771 -1.1616548 0.015938489 -1.0200928 -0.67078775 2.8582032
-2.2998736 -3.031047 1.221507 1.0471315 -0.1797323 1.3860548 0.7254853 0.8969199
1.096982 -2.7275276 1.1226758 0.7420776 -0.14607094 1.5029724 1.428903 -3.017404
