assets/model_hate_speech.tflite (tflite, 94228 bytes, 5 tensors)

sequential_27/embedding_27/embedding_lookup/2543223 f4 [1193, 16]
0	0xbc7ea104	-0.015541319
1	0x3cc50ddd	0.024054462
2	0x3cc16a50	0.023610264
3	0xbb5c2258	-0.0033589806
4	0x3a92fe08	0.0011214623
5	0x3b97c6cb	0.0046318523
6	0xbc29b643	-0.010358396
7	0x3d0429fd	0.032266606
8	0x3bdbd69d	0.0067089335
9	0xbc3f550b	-0.011677991
10	0xbe417d25	-0.18895395
11	0x3c4acb91	0.012377636
12	0x3c3b196f	0.011419638
13	0x3b2a4232	0.0025979397
14	0xbabb8004	-0.0014305119
15	0x3c983a6a	0.018582541
16	0x3e16f912	0.1474345
17	0xbe076668	-0.13222659
18	0x3dec9575	0.11551944
19	0x3e3563b2	0.17713812
20	0x3e13e2c5	0.14441974
21	0xbe048903	-0.12942891
22	0xbe22bd02	-0.15892413
23	0x3da40dc7	0.0801044
24	0xbe04a0bd	-0.12951942
25	0xbe45f1cf	-0.19330524
26	0xbe8a1c89	-0.26974896
27	0x3e10abce	0.14128038
28	0xbe35161c	-0.17684215
29	0xbda981f2	-0.08276738
30	0xbdd6b335	-0.104834
31	0xbe12f4fc	-0.14351267
32	0xbcf01e73	-0.029311394
33	0x3a9fcfa0	0.0012192614
34	0xbcedc947	-0.02902664
35	0xbcab13cd	-0.020883465
36	0xbcbcba0d	-0.023037935
37	0x3c8c02da	0.017091203
38	0xbc4b06d8	-0.012391768
39	0x3c99864e	0.0187408
40	0xbd3066a7	-0.043066647
41	0xbd11336d	-0.035449434
42	0x3d48eb61	0.0490526
43	0x3d3de3ed	0.046359945
44	0x3cf2744e	0.029596474
45	0xbc88ef0c	-0.016715549
46	0x3b6207a0	0.0034489408
47	0x3cf1cdb2	0.029517028
48	0xbf84679b	-1.0344118
49	0x3f659208	0.8967595
50	0xbf71c84f	-0.9444627
51	0xbf42e389	-0.7612844
52	0xbf59d4a0	-0.85090065
53	0x3f3b629b	0.73197335
54	0x3f178e26	0.59201276
55	0xbf1b4ec1	-0.60667044
56	0x3f80b844	1.0056233
57	0x3f235770	0.63805294
58	0x3fc6334e	1.5484407
59	0xbf3c93c3	-0.73662966
60	0x3f678dfb	0.9045102
61	0x3f1ccef2	0.61253273
62	0x3f49a38c	0.7876518
63	0x3f5b85b8	0.85750914
64	0xbe9ddbc6	-0.30831736
65	0x3e3a033e	0.181653
66	0xbe288b44	-0.16459376
67	0x3dcd7978	0.10032934
68	0xbd7fa391	-0.06241185
69	0x3cdffaf3	0.027341342
70	0xbdb9168a	-0.09037502
71	0x3e1d9282	0.1538792
72	0x3e7c2134	0.24622041
73	0x3c9b4dce	0.018957999
74	0x3fce0cf2	1.60977
75	0x3cd7683f	0.026294826
76	0x3dee76f3	0.116437815
77	0xbd20b12a	-0.039231457
78	0x3d2c8abe	0.042124502
79	0x3dd6737d	0.104712464
80	0xbf5ffbd6	-0.87493646
81	0x3f116ef6	0.5680994
82	0xbf16cc43	-0.5890543
83	0xbeb792e4	-0.35854256
84	0xbed0a14b	-0.40748057
85	0x3ee76a4a	0.4519828
86	0x3f05a00b	0.5219733
87	0xbec9f450	-0.39444208
88	0x3f3ad90b	0.7298743
89	0x3f1a7ca6	0.6034645
90	0x3fe91e1a	1.8212311
91	0xbec45fe5	-0.38354412
92	0x3f08e085	0.5346759
93	0x3ed855ca	0.42252952
94	0x3ede62ad	0.4343466
95	0x3eda8a1f	0.42683503
96	0x3debf6de	0.115216956
97	0xbe8eeafc	-0.27913654
98	0x3e462c34	0.193528
99	0x3ec2c038	0.38037276
100	0x3ec288e6	0.3799507
101	0xbe9d3e1a	-0.30711442
102	0xbe659b84	-0.22422606
103	0x3e91762f	0.2841048
104	0xbe6c70a2	-0.23089841
105	0xbe559f4a	-0.20861545
106	0x3ea54c73	0.3228489
107	0x3eb6eecd	0.35729066
108	0xbea578b4	-0.32318652
109	0xbe7e3c0e	-0.24827597
110	0xbead2efb	-0.33824906
111	0xbe9711c0	-0.2950573
112	0x3c276f6f	0.010219439
113	0xbe18892e	-0.1489608
114	0x3df59261	0.1199081
115	0x3e8216e0	0.25408077
116	0x3e0b28c9	0.13589777
117	0xbe4c491f	-0.19949768
118	0xbe951e70	-0.29124784
119	0x3e900a89	0.28133038
120	0xbcc7bd4c	-0.024382256
121	0xbe1c27cc	-0.15249556
122	0x3e4b18c0	0.1983366
123	0x3e2719f1	0.1631849
124	0xbe228517	-0.15871082
125	0xbe84b8fe	-0.25922388
126	0xbe58fc1c	-0.21189922
127	0xbe27b0ab	-0.16375987
128	0xbf4c32aa	-0.7976481
129	0x3efc7710	0.49309587
130	0xbf19a58f	-0.6001825
131	0xbe3751dd	-0.17902322
132	0xbe8c5240	-0.27406502
133	0x3ebb7fc5	0.36620918
134	0x3ea09481	0.313633
135	0xbe89e50a	-0.26932555
136	0x3f20c5f0	0.6280203
137	0x3ee587ab	0.4483007
138	0x3ff575d6	1.9176586
139	0xbe4014e8	-0.18757975
140	0x3ed55dea	0.41673213
141	0x3eef3264	0.46718132
142	0x3eb0dd3f	0.34543797
143	0x3ee7b20e	0.45253032
144	0xbf8010ba	-1.0005105
145	0x3f67936c	0.9045932
146	0xbf701619	-0.9378372
147	0xbf5154fe	-0.8177031
148	0xbf690683	-0.9102556
149	0x3f6d3c30	0.92669964
150	0x3f23eeb5	0.64036113
151	0xbf303a94	-0.68839383
152	0x3f7ffe43	0.9999735
153	0x3f52f96c	0.8241184
154	0x3fce5420	1.6119423
155	0xbf598d81	-0.8498154
156	0x3f68785b	0.9080865
157	0x3f2208e5	0.6329482
158	0x3f5faf8f	0.87377256
159	0x3f62179a	0.88317263
160	0x3ec3efbd	0.38268843
161	0xbf11e6bc	-0.569927
162	0x3f05f642	0.52328885
163	0x3f393d4b	0.7235915
164	0x3f220dc4	0.63302255
165	0xbf27d1c8	-0.65554476
166	0xbf47fac0	-0.7811699
167	0x3f480a93	0.78141135
168	0xbf07bd80	-0.5302353
169	0xbf26ac19	-0.6510635
170	0x3ed5848b	0.41702685
171	0x3f3654f9	0.7122341
172	0xbf1dc158	-0.61623144
173	0xbf2c107f	-0.6721267
174	0xbf2d0e4d	-0.67599946
175	0xbf169d2b	-0.5883357
176	0xbef71dc7	-0.48264906
177	0x3e918aff	0.28426358
178	0xbec6e2d4	-0.3884493
179	0xbdb32946	-0.08748107
180	0xbe6b44f2	-0.2297552
181	0x3e2106ec	0.15725297
182	0x3e4b1cfd	0.19835277
183	0xbe365407	-0.17805491
184	0x3ebcc8ef	0.3687205
185	0x3e94a882	0.2903481
186	0x3f93007d	1.1484524
187	0xbe1f222b	-0.15540378
188	0x3ea3b016	0.3197028
189	0x3e8aeb8a	0.27132827
190	0x3e7d9b32	0.24766234
191	0x3e99b77d	0.30022803
192	0x3e1eb8da	0.15500203
193	0xbedda9d8	-0.43293643
194	0x3eb22bef	0.34799144
195	0x3f36d179	0.7141338
196	0x3f103df6	0.56344545
197	0xbf17bf3f	-0.59276193
198	0xbf15be15	-0.5849317
199	0x3f3222a5	0.69584113
200	0xbe98a881	-0.29816058
201	0xbee65435	-0.4498612
202	0x3fa70f90	1.3051624
203	0x3f2c2a93	0.67252463
204	0xbee7c6f3	-0.45268974
205	0xbea7e3c3	-0.32790956
206	0xbf0eaf0a	-0.5573584
207	0xbeef06c2	-0.46684843
208	0xbdfe6d05	-0.124231376
209	0x3cd025ef	0.025408713
210	0xbd80679f	-0.06269764
211	0x3e3e424e	0.1857998
212	0x3d624f9d	0.055251706
213	0xbdd1a9b2	-0.10237445
214	0xbdbe5232	-0.09293021
215	0x3dbbe505	0.091745414
216	0x3ceb923e	0.028756257
217	0xbd64e8e5	-0.055886168
218	0x3ed497a7	0.41521952
219	0x3e0b1613	0.1358264
220	0x3d1ba186	0.037995838
221	0xbdf0f152	-0.11764778
222	0xbd4fdae2	-0.050745852
223	0x3cc45e20	0.023970664
224	0x3ea1c8ba	0.31598455
225	0xbf07c1ed	-0.5303028
226	0x3ef63a2d	0.4809126
227	0x3f38390d	0.7196205
228	0x3f214c63	0.6300718
229	0xbf0a4d9a	-0.5402466
230	0xbf1eef3c	-0.6208379
231	0x3f37a58d	0.71736985
232	0xbee122ef	-0.43971965
233	0xbf14d7a8	-0.58141565
234	0x3ed46200	0.41481018
235	0x3f2aa43a	0.6665684
236	0xbf031d98	-0.5121703
237	0xbf11f8db	-0.5702035
238	0xbf102bfe	-0.56317127
239	0xbf081e8c	-0.5317161
240	0xc0095f80	-2.1464539
241	0x4000a911	2.010319
242	0xc000dd58	-2.0135098
243	0xbfe14fb5	-1.760245
244	0xbff624f5	-1.9230028
245	0x3ff42374	1.907332
246	0x3fdaa2e1	1.7080957
247	0xbfce5d15	-1.6122156
248	0x4004c9b1	2.0748103
249	0x3fef5177	1.8696736
250	0x40259fa0	2.5878677
251	0xbfefccb1	-1.8734342
252	0x3ffc520f	1.9712542
253	0x3fcec641	1.6154252
254	0x3ff95670	1.9479504
255	0x3ff1cb93	1.8890251

sequential_27/dense_55/BiasAdd/ReadVariableOp/resource f4 [2]
0	0xbf1d860d	-0.6153267
1	0x3f1d860b	0.6153266

sequential_27/dense_54/BiasAdd/ReadVariableOp/resource f4 [16]
0	0xbde38c50	-0.11110747
1	0xbc5b26c4	-0.013375942
2	0xbe0d74a4	-0.13814026
3	0xbd866e02	-0.06563951
4	0x3e838314	0.25685942
5	0x3e91f6b6	0.28508538
6	0x3ca8f5cf	0.020625023
7	0x3cf672f8	0.030084118
8	0xbcb3d621	-0.02195269
9	0xbdeb6a48	-0.11494881
10	0xbe16acd3	-0.14714365
11	0xbdfb20e8	-0.12262136
12	0xbca45625	-0.020060608
13	0xbd83d1b2	-0.064364806
14	0xbe246c15	-0.16056855
15	0xbd981dbc	-0.074275464

sequential_27/dense_54/MatMul f4 [16, 16]
0	0x3d9cdd81	0.07659436
1	0x3f5d80a2	0.86524403
2	0xbf975a45	-1.1824423
3	0xbfa25025	-1.2680708
4	0xbf835aca	-1.0262082
5	0x3f405953	0.751363
6	0x4070ed83	3.7644966
7	0xbf06df80	-0.52684784
8	0x3f611c3e	0.8793372
9	0x402d2178	2.7051678
10	0x3eb710d7	0.35755035
11	0xc0208a0f	-2.5084264
12	0x3f3938aa	0.7235209
13	0x3f3a74cf	0.72834486
14	0x40259b0e	2.5875888
15	0x3f31c74b	0.6944472
16	0xbd827194	-0.063693196
17	0xbdb566b1	-0.088574775
18	0x3ec61b5b	0.38692746
19	0xbed6163d	-0.4181384
20	0x3c37265a	0.011178577
21	0xbd0c94c4	-0.03432156
22	0x3df045c7	0.11732059
23	0xbeba0736	-0.36333627
24	0xbed18d87	-0.4092829
25	0x3e5c75e4	0.21529347
26	0x3e5f3402	0.21797183
27	0x3ea29499	0.31753996
28	0xbd5a3ef1	-0.05328268
29	0x3ecf9ea7	0.4055073
30	0x3db0c6a2	0.08631636
31	0xbedbbc54	-0.4291712
32	0xbf0a5647	-0.540379
33	0x3e3e27f1	0.18569924
34	0xbfa05cec	-1.2528358
35	0xbeddfec3	-0.4335843
36	0xbfb75720	-1.4323463
37	0x3f46b8f4	0.77625966
38	0x40591f41	3.3925326
39	0xbf43087e	-0.76184833
40	0x3ebaf937	0.3651826
41	0x3ff31cc1	1.899315
42	0xbde3aedc	-0.11117336
43	0xbfc5aac6	-1.5442741
44	0x3f3243ed	0.69634897
45	0x3f7e6449	0.99371773
46	0x400b9e0c	2.1815214
47	0x3f398fea	0.7248522
48	0x3e4f9a26	0.20273647
49	0x3dd2a154	0.10284677
50	0x3e682b34	0.2267273
51	0xbdb90ba7	-0.09035426
52	0x3ee27a24	0.4423381
53	0x3ea56b12	0.3230825
54	0x3eb1151f	0.34586427
55	0x3e533ed3	0.20629434
56	0x3e4d8c9a	0.20073166
57	0xbe342854	-0.17593509
58	0xbe5ec831	-0.21756054
59	0x3e4fdb22	0.20298436
60	0x3eba2883	0.36359033
61	0xbd9c5692	-0.076336995
62	0x3e1cf623	0.15328269
63	0x3dea67c5	0.11445574
64	0x3ccf4153	0.025299704
65	0xbe982339	-0.29714373
66	0x3fb38682	1.4025424
67	0x3fc6ef8f	1.5541857
68	0x3ffcf44a	1.9762051
69	0xbf89db93	-1.0770134
70	0xc0c035ad	-6.006552
71	0x3fc0a2fe	1.5049741
72	0xbf6914db	-0.9104745
73	0xc05eb66c	-3.4798841
74	0x3ebcb002	0.36853033
75	0x40888cfb	4.2672095
76	0xbf46310a	-0.7741858
77	0xbf2ecc04	-0.68280053
78	0xc053747d	-3.3039849
79	0xbf64f1ba	-0.89431345
80	0x3e973cb4	0.295385
81	0xbf8666a1	-1.050007
82	0x3fc609a8	1.5471697
83	0x3fc78e5d	1.5590321
84	0x400cef8d	2.202121
85	0xbf66604a	-0.89990675
86	0xc0d395b4	-6.6120243
87	0x3fb1b0f4	1.3882127
88	0xbe97fc92	-0.29684883
89	0xc03ba262	-2.931786
90	0x3eb6490a	0.356026
91	0x409085a9	4.516316
92	0xbf6be9c4	-0.92153573
93	0xbf8b7a11	-1.0896627
94	0xc05cb283	-3.4483955
95	0xbe9a8ee2	-0.30187136
96	0xbd2caaeb	-0.042155188
97	0x3d03418c	0.032044932
98	0xbe35f060	-0.17767477
99	0x3e7e8342	0.24854758
100	0xbe9d944b	-0.307772
101	0xbe59c25e	-0.21265551
102	0xbe2d823a	-0.16944209
103	0xbd7d6df9	-0.061872456
104	0xbea3e60c	-0.3201145
105	0xbe1184f8	-0.1421088
106	0xbdf4ad42	-0.11947109
107	0x3e3578f1	0.17721917
108	0xbe8bbd23	-0.27292737
109	0xbec9be84	-0.39403164
110	0x3e550798	0.20803678
111	0xbd3e3ba2	-0.04644359
112	0x3eb99117	0.36243507
113	0xbe80b49c	-0.25137794
114	0xbd37f3c1	-0.044910196
115	0x3ea41219	0.32045057
116	0xbe16afe6	-0.14715537
117	0xbe9e83c3	-0.309599
118	0xbf08f2e2	-0.5349561
119	0x3f0b8e23	0.5451376
120	0xbef3c58f	-0.47611663
121	0xbf00b070	-0.5026922
122	0xbe41df31	-0.18932797
123	0x3f7ea51a	0.99470675
124	0xbef536f5	-0.4789349
125	0xbdb68da2	-0.08913733
126	0xbec957e7	-0.39324877
127	0x3e062c05	0.1310273
128	0x3e6a2ed3	0.22869425
129	0x3ea19186	0.31556338
130	0x3e27e663	0.1639648
131	0x3eacc3f9	0.33743265
132	0xbed1a910	-0.40949297
133	0xbed4300d	-0.4144291
134	0xbe2d3ec6	-0.16918477
135	0xbe862d9a	-0.26206666
136	0x3e07de28	0.1326834
137	0xbdf03fbe	-0.11730908
138	0x3e1c2e88	0.15252125
139	0x3d892268	0.066960156
140	0xbc8045b7	-0.015658243
141	0xbcef51d4	-0.029213823
142	0xbe42fade	-0.1904101
143	0xbe0c56ba	-0.13704959
144	0xbececb04	-0.40389264
145	0x3f6a4f30	0.9152708
146	0xbf8371c0	-1.0269089
147	0xbf96a88d	-1.1770188
148	0xbfadfb00	-1.3592224
149	0x3f774f1a	0.96605074
150	0x40528ccb	3.2898433
151	0xbef1f49d	-0.47256938
152	0x3f6b1f20	0.9184437
153	0x3fff4ccf	1.9945315
154	0x3e6c9f99	0.23107757
155	0xc00e6ca3	-2.2253807
156	0x3f54978f	0.8304376
157	0x3f3c87c5	0.7364467
158	0x401b64c9	2.4280264
159	0x3f31be58	0.69431067
160	0xbf13dc7e	-0.5775832
161	0x3f3dd928	0.7415948
162	0xbf84be17	-1.0370511
163	0xbf39630b	-0.7241675
164	0xbf9e4e71	-1.2367688
165	0x3f30c3ee	0.69048965
166	0x405597f9	3.3374007
167	0xbf7e1a4b	-0.9925887
168	0x3f477f49	0.77928597
169	0x3ff2c168	1.8965273
170	0x3c0cb88b	0.00858892
171	0xbfe28081	-1.7695466
172	0x3f14170c	0.57847667
173	0x3ed113cb	0.40835413
174	0x4002c499	2.0432494
175	0xbd57ce33	-0.05268688
176	0xbed90440	-0.42386055
177	0x3f07ab1e	0.5299548
178	0xbfb041bd	-1.3770062
179	0xbf3fbfb7	-0.7490191
180	0xbfcc0b25	-1.5940901
181	0x3e4ef6d3	0.20211343
182	0x404c8a64	3.1959467
183	0xbf36d93c	-0.71425223
184	0x3f164636	0.58700883
185	0x3fe638a2	1.7986033
186	0x3de724f7	0.11286347
187	0xc0164188	-2.3477497
188	0x3f6bfe19	0.921846
189	0x3f8e5a39	1.1121284
190	0x401974c0	2.3977509
191	0x3f27949e	0.65461147
192	0x3ea75d1e	0.3268823
193	0xbe70c757	-0.23513542
194	0xbed70f49	-0.4200385
195	0x3ebd7943	0.37006578
196	0xbec7fc22	-0.3905955
197	0x3ec775ed	0.38957158
198	0x3e1f0aab	0.15531413
199	0xbd157da9	-0.036496792
200	0xbd0a3b66	-0.033748053
201	0xbe5e267f	-0.21694373
202	0xbe2a59c8	-0.16635811
203	0x3e7f14df	0.24910305
204	0x3e901d27	0.2814724
205	0xbdcb43b4	-0.09925023
206	0x3e432574	0.19057256
207	0xbe514bb3	-0.20439033
208	0xbe99272b	-0.29912695
209	0x3ea6ee03	0.32603464
210	0xbe15126c	-0.14557809
211	0xbeab4378	-0.33449912
212	0x3d1c1bc4	0.038112417
213	0xbe951160	-0.2911482
214	0xbedf7b13	-0.43648586
215	0x3ead4a1a	0.33845598
216	0x3debd17a	0.11514564
217	0xbdff6c7a	-0.12471862
218	0xbe22028a	-0.15821281
219	0xbe8f1fcf	-0.27953956
220	0x3e84952f	0.25895068
221	0x3ebf8698	0.37407374
222	0xbe16456c	-0.1467492
223	0xbeca6df0	-0.39537
224	0xbf13b32a	-0.5769526
225	0x3e92617c	0.2859
226	0xbf9edb53	-1.2410682
227	0xbf814691	-1.009966
228	0xbf96d027	-1.1782273
229	0x3f4b8fac	0.795161
230	0x4055f804	3.3432627
231	0xbf8088d3	-1.0041755
232	0x3e830292	0.25587898
233	0x3fc2bcb6	1.521384
234	0xbe93a08e	-0.2883343
235	0xbfe9cd70	-1.826582
236	0x3f11f31b	0.57011575
237	0x3f5a7b66	0.8534454
238	0x3feeeffe	1.866699
239	0xbd92d761	-0.071699865
240	0xbeebc08b	-0.46045336
241	0x3f57084e	0.83997047
242	0xbf8c42bf	-1.0957869
243	0xbf6f3064	-0.93433213
244	0xbfcc520e	-1.5962541
245	0x3e71feaf	0.2363231
246	0x406221c4	3.533311
247	0xbf5e3c61	-0.8681088
248	0x3f5a7373	0.8533241
249	0x40151434	2.329358
250	0x3e84f017	0.25964424
251	0xc010e1d7	-2.2637842
252	0x3f343c64	0.7040465
253	0x3f203a52	0.6258899
254	0x3fea729e	1.8316228
255	0x3f4a3d51	0.7899981

sequential_27/dense_55/MatMul f4 [2, 16]
0	0x3fbbcd52	1.4672034
1	0x3e8b91ef	0.27259776
2	0x3fce67cc	1.6125426
3	0x3f04161f	0.51596254
4	0xc05694db	-3.3528354
5	0xc055a1f8	-3.3380108
6	0x3ecacc10	0.39608812
7	0x3e05291b	0.13003962
8	0x3f0adbd0	0.5424166
9	0x3fb136ff	1.3844908
10	0x40163322	2.346871
11	0x3feeca99	1.8655578
12	0x3de8b873	0.11363306
13	0xbeb63492	-0.35586983
14	0x3fd923de	1.6964071
15	0x4003540b	2.0520046
16	0xc0015888	-2.0210285
17	0x3f0f171d	0.55894643
18	0xbfc95b08	-1.5730906
19	0x3f0438f7	0.5164942
20	0x404f5923	3.2398155
21	0x4077fe1b	3.8748844
22	0x3f0c33ec	0.54766726
23	0x3f601169	0.87526566
24	0xbf052825	-0.5201438
25	0xbffc78a9	-1.9724323
26	0xc0046527	-2.0686738
27	0xbffce42a	-1.975713
28	0x3ef2b535	0.47403875
29	0x3ec23f0c	0.37938726
30	0xbff7766e	-1.9333017
31	0xbf7fcd2e	-0.99922454
