assets/model_sarcasm.tflite (tflite, 769553 bytes, 5 tensors)

sequential_10/embedding_10/embedding_lookup/1452822 f4 [10003, 16]
000000 c4 20 77 3d 55 6b 9c 3c 22 0e 37 3d 51 7c d0 3c
       0.060333982 0.019094149 0.044691212 0.025449904
000010 01 ca 8f bc 67 f2 67 bd b8 75 bf 3c 90 4e 9c bb
       -0.017552378 -0.056627657 0.023371562 -0.0047701076
000020 ed 8b 0a be 93 e1 3c bc 7d d8 c2 3c 87 b9 01 bd
       -0.1352994 -0.01152839 0.02378487 -0.031671073
000030 06 63 3c 3c c3 27 3c 3a a7 02 b3 3a c9 48 b3 bd
       0.011498218 0.0007177556 0.0013657407 -0.08754117
000040 83 e9 3c bd 12 7f e4 3d 6a 21 19 bd bd 00 1b 3e
       -0.04612113 0.11157049 -0.03738538 0.15137
000050 16 59 e2 3d 87 6c d6 3d 53 a1 24 be ad ce 17 be
       0.11052148 0.10469919 -0.16077165 -0.14824934
000060 7a 67 85 bd c5 81 cc 3d 4b 82 2f be 78 f6 03 3e
       -0.06513877 0.09985689 -0.17139547 0.12886989
000070 f6 59 ba 3d 3f eb 2f 3e de 5f 45 be 5f 48 d7 3d
       0.0909919 0.17179583 -0.19274852 0.105118506
000080 d1 e9 ad bd a3 61 7f 3e 7d 30 ad bd 56 46 b8 3d
       -0.084918626 0.24939589 -0.08456514 0.089977905
000090 65 ba 0b 3e 48 c1 a4 bd 68 09 2c be 50 2a 82 be
       0.13645323 -0.08044678 -0.16800463 -0.25422907
0000a0 b3 e6 28 3d f7 67 1d 3e 33 6a 71 bd 4f 7d 13 bb
       0.041235637 0.1537169 -0.05893917 -0.002250511
0000b0 06 03 51 3e f5 94 ed 3d 6b 8e c3 bd 20 f8 af bc
       0.2041131 0.11600677 -0.095486484 -0.02148062
0000c0 9a f8 f1 be e9 f9 05 3f 84 73 dc be d3 98 b1 3e
       -0.4725998 0.5233446 -0.4305688 0.34686908
0000d0 6e 5b fc 3e 40 24 a6 3e 8a 58 09 bf bb d0 17 bf
       0.49288505 0.32449532 -0.53650725 -0.5930287
0000e0 42 be 4a bd 6e f0 0b 3f 45 f7 a0 be 38 42 c3 3e
       -0.04949785 0.5466374 -0.31438652 0.38136458
0000f0 bb a2 03 3f fe 9a ed 3e 2a 75 aa be 39 68 f8 3e
       0.5142018 0.46407312 -0.33292514 0.48517016
000100 3b 5f 04 bf 66 44 60 3f d5 f6 fa be 18 04 02 3f
       -0.5170781 0.8760437 -0.49016443 0.50787497
000110 cb 7f 47 3f 00 ae 9b be 14 19 34 bf 46 cb 65 bf
       0.7792937 -0.3040619 -0.70350766 -0.89763296
000120 9f 81 6b 3e 3b b8 69 3f 7c 24 8c be c1 a8 ea 3e
       0.22998665 0.9129674 -0.27371585 0.45831874
000130 74 7e 77 3f 99 36 39 3f 4c 4a 06 bf 2f 19 59 3e
       0.9667733 0.72348934 -0.5245712 0.21201013
000140 9a 77 04 40 a7 b4 bb bf 04 a2 fb 3f 97 4a a4 bf
       2.0698 -1.4664506 1.9658818 -1.2835263
000150 99 c9 e0 bf f6 f8 1c c0 70 41 e8 3f b7 ec c6 3f
       -1.7561523 -2.4526954 1.814497 1.554099
000160 70 14 8b bf 2b 68 d3 bf 3a f7 e1 3f ab d4 f8 bf
       -1.0865612 -1.6516165 1.7653573 -1.9439901
000170 ce c1 ba bf b7 8b b1 bf 86 d6 97 3f 3f 22 0b c0
       -1.4590394 -1.3870763 1.1862342 -2.1739652
000180 f6 cf 10 3e 5f b0 98 3e 7a 73 c0 3d 8a 3e 9d 3e
       0.14141831 0.2982206 0.093970254 0.30711776
000190 85 a0 ac 3d c9 8a df be f0 b8 5e 3c 4e d0 38 be
       0.08429054 -0.43660572 0.013593897 -0.18048212
0001a0 d3 f5 c8 bd e9 9f c6 3d 21 13 02 3e 1d a6 db bc
       -0.09812512 0.09698469 0.1270261 -0.026812607
0001b0 6d ff 72 3e 2e f2 12 3e 21 13 21 be fc 59 44 be
       0.2373025 0.14350197 -0.15729953 -0.19174951
0001c0 83 c7 a4 bc b3 c4 f7 3e c5 4f 42 bd 2a ae bd 3e
       -0.020114666 0.48392257 -0.047439355 0.3704694
0001d0 3c 87 8f 3e fb 4b 2d bf e3 7a e8 bd a9 7a cc be
       0.28032863 -0.6769406 -0.11351564 -0.39937332
0001e0 a0 0d ac bc 2f 34 cd 3e d9 2c 69 3d 06 70 a9 3c
       -0.02100259 0.40078875 0.056927536 0.0206833
0001f0 31 12 01 3f f3 50 c4 3e ca 65 92 be d5 b7 7a be
       0.5041838 0.3834301 -0.28593284 -0.24484189
000200 02 52 d5 3f e8 3a 96 bf 82 42 d4 3f 8b 63 84 bf
       1.6665652 -1.1736727 1.6582797 -1.0342878
000210 7b 70 bd bf 50 df 0d c0 4c 1e c8 3f 42 46 a2 3f
       -1.4799951 -2.216755 1.5634246 1.2677691
000220 5e 7c 86 bf 2b 00 a8 bf b2 a3 c5 3f b7 fa ca bf
       -1.0506704 -1.3125051 1.5440581 -1.5857762
000230 d3 e5 a2 bf d6 70 99 bf 2a 3f 78 3f 8a 08 f1 bf
       -1.2726387 -1.198756 0.9697138 -1.8830731
000240 42 f1 e6 bc 07 b1 0d 3f 37 4c 00 bd 8d bb e0 3e
       -0.028191213 0.5534825 -0.031322684 0.4389309
000250 6b 0a b0 3e 66 bc 26 bf 01 00 73 be 95 ed ed be
       0.34382948 -0.65131223 -0.2373047 -0.46470323
000260 2f 08 7a bc 2b af e0 3e ad b2 43 3d ad 6c cc 3d
       -0.01526074 0.43883643 0.04777782 0.09981666
000270 19 47 07 3f 40 bc df 3e 91 7f ca be 8e a3 61 be
       0.5284286 0.4369831 -0.3955045 -0.22035047
000280 e4 d4 f4 3f d8 7d 9e bf 60 4d e9 3f cc 84 95 bf
       1.9127469 -1.2382154 1.8226738 -1.1681151
000290 2b f5 c7 bf be ef 1f c0 02 5b dd 3f ba 2b a8 3f
       -1.5621694 -2.4990077 1.7293398 1.3138344
0002a0 8d f6 71 bf 57 34 c1 bf 08 f5 c4 3f 33 a8 e9 bf
       -0.9451683 -1.5094098 1.5387278 -1.8254455
0002b0 87 a7 aa bf 47 1a a3 bf 55 3a 92 3f 16 a5 06 c0
       -1.3332375 -1.2742394 1.1424052 -2.103826
0002c0 4a 7a c9 3d 91 22 f5 3e 87 67 8d 3d 9f a3 a0 3e
       0.09837778 0.47877935 0.06904512 0.31374833
0002d0 de 8c 10 3e d4 37 7c bf 43 f0 08 be 0e ae 98 be
       0.14116237 -0.98522687 -0.13372903 -0.29820293
0002e0 96 0e 85 bc 61 e0 6c 3e 99 fb 2f 3e e1 7a dc bd
       -0.016242307 0.23132469 0.1718582 -0.10765625
0002f0 cf 05 e7 3e 30 c4 7b 3e 3f b2 96 be 02 e1 d8 be
       0.4512162 0.24586558 -0.29432866 -0.42359167
000300 21 98 18 40 07 de d9 bf ce 4a 10 40 5e 7a d2 bf
       2.3842852 -1.7020882 2.2545657 -1.6443594
000310 c2 6b 04 c0 7f 51 37 c0 87 66 0b 40 82 9d ee 3f
       -2.069077 -2.8643491 2.1781328 1.8641818
000320 a5 54 b3 bf 22 c3 fa bf 86 69 08 40 2e 29 0e c0
       -1.4010206 -1.95908 2.1314406 -2.2212634
000330 89 4c e9 bf 50 cc dc bf 34 0b c9 3f 06 4d 22 c0
       -1.8226482 -1.7249851 1.5706544 -2.5359511
000340 96 f4 df be 9d 2e 54 3f 46 e8 d6 be cd bd 09 3f
       -0.43741292 0.82883626 -0.41974086 0.5380524
000350 2c 86 27 3f d4 64 8b be b5 9c 02 bf d9 86 38 bf
       0.65439105 -0.27225363 -0.51020366 -0.7208076
000360 ec 57 fb bc 28 2d 30 3f 1b 76 c4 bd 66 e7 bc 3e
       -0.030681573 0.688189 -0.09592839 0.36895293
000370 0a 64 67 3f 9c 18 2c 3f 07 d9 f1 be cf 34 2c 3e
       0.9038702 0.6722505 -0.4723589 0.1681702
000380 26 77 92 bf 40 66 be 3f d8 f5 98 bf 78 67 95 3f
       -1.1442611 1.4874954 -1.1950026 1.1672201
000390 6c e3 b5 3f 04 7a b0 3e c3 87 aa bf 5a 29 be bf
       1.4210029 0.3446809 -1.3322681 -1.485637
0003a0 03 d0 51 3f 1a d0 bc 3f 01 0d 61 bf 65 f5 92 3f
       0.81958026 1.4751008 -0.8791047 1.1481138
0003b0 5b 89 d1 3f 67 49 ac 3f c5 4e 93 bf 13 13 71 3f
       1.6370043 1.3459901 -1.1508414 0.9416973
0003c0 c3 75 82 3f 21 c1 18 bf f8 04 7a 3f d0 cd 0b bf
       1.0192188 -0.5966969 0.9766383 -0.5461092
0003d0 8a dc 4f bf 13 0d a9 bf b3 e7 66 3f ed 60 38 3f
       -0.8119589 -1.3207115 0.90197295 0.72022897
0003e0 da 4f 5f bf 61 8a 3b bf 97 02 75 3f 29 f0 70 bf
       -0.8723122 -0.73258024 0.95707077 -0.94116455
0003f0 03 04 34 bf c3 3f 1b bf c7 d1 f6 3e de a0 91 bf
       -0.7031862 -0.6064417 0.48206922 -1.1377218

sequential_10/dense_21/BiasAdd/ReadVariableOp/resource f4 [2]
000000 ea 2f 07 be ed 2f 07 3e
       -0.13201872 0.13201876

sequential_10/dense_20/BiasAdd/ReadVariableOp/resource f4 [16]
000000 c3 7a 17 3e d2 80 d1 bc fe 41 35 bd 9b cf 37 be
       0.14792924 -0.025574122 -0.04425239 -0.17950289
000010 00 00 00 00 7d 95 32 bd 18 a3 a7 bd 78 db 39 3e
       0.0 -0.043599594 -0.081854045 0.18150127
000020 85 54 55 be c6 7a 64 be e9 7f cf bc 18 5d 55 be
       -0.20833023 -0.2231246 -0.025329547 -0.20836294
000030 81 63 55 be 6a fc 80 be cc 47 7e 3e 63 8c 6f 3e
       -0.20838739 -0.25192577 0.24832076 0.23393397

sequential_10/dense_20/MatMul f4 [16, 16]
000000 45 1f 0f bf 19 16 70 3f 3c e2 b2 bf 3e e3 2e 40
       -0.5590709 0.9378372 -1.3975291 2.7326198
000010 7a bd 11 40 4d 22 1f bd 9c 0f b7 bf 0c 5e b8 be
       2.2771897 -0.03885107 -1.4301639 -0.36009252
000020 13 f7 b0 3e 20 20 ad 3e b3 e7 ca be 16 01 3b 3f
       0.34563503 0.33813572 -0.39629897 0.7304853
000030 60 6f 80 3f 11 bf 6f 40 fd ab ab bf 93 f1 e9 3e
       1.0033989 3.7460368 -1.3411862 0.4569212
000040 dc 48 8d bc e3 26 d1 3d 96 89 c7 be 42 74 a3 3e
       -0.017246656 0.10212495 -0.38972157 0.31924635
000050 fd e8 a2 bc 3f 91 21 3d ed 27 a8 3e a7 3f 27 3d
       -0.019886488 0.039445158 0.3284296 0.040832188
000060 07 bd 79 be 04 54 be be 5f 77 b9 3e 4a 31 04 be
       -0.24388514 -0.37173474 0.36223885 -0.12909427
000070 32 58 cf 3e 46 d8 8a be 87 ae 8b 3e 33 91 d0 3e
       0.40496975 -0.2711813 0.2728159 0.40735778
000080 61 b3 8d bc 83 3c 9c 3e 08 86 16 be 7a 37 66 3e
       -0.017297449 0.30514917 -0.14699566 0.224821
000090 a4 1a 99 3e 91 49 93 3d 82 e6 47 bd 37 20 70 bd
       0.29903138 0.07191766 -0.048803814 -0.058624472
0000a0 74 a7 2b 3d 60 68 b1 3d f4 4e 1b be 19 27 01 bd
       0.041907743 0.08662486 -0.15166837 -0.031531427
0000b0 af cf 8e be a4 24 ae 3c 8a c5 da be 87 2b a2 3e
       -0.27892825 0.021257706 -0.42728835 0.31673834
0000c0 37 6f 8e 3f 8c 54 09 bf 1d 5b 13 40 98 f7 d0 bf
       1.112769 -0.53644633 2.302436 -1.632556
0000d0 01 da 0b c0 b7 fe 28 3e b1 fb 7a 3f 19 fd 0d 3f
       -2.185181 0.16503416 0.980403 0.5546432
0000e0 3f 99 34 bd 50 2f aa bd e8 19 55 be 82 00 33 bf
       -0.04409146 -0.083098054 -0.20810664 -0.6992265
0000f0 c2 87 09 bf 6f 01 45 c0 27 09 45 3f 39 f0 5b be
       -0.53722775 -3.0782125 0.7696709 -0.21478356
000100 5e 3d 66 3e 7e 4f 83 be b4 4b ac bd 99 2e bc 3e
       0.22484347 -0.25646585 -0.08412877 0.367543
000110 40 38 dc bd e3 2c 82 3e 01 9a 6c be 0e 9f cb be
       -0.10752916 0.2542487 -0.23105623 -0.39769787
000120 26 80 1f 3e 59 f0 b0 be 58 5e 6a 3d 0c c8 9b 3d
       0.15576228 -0.3455837 0.05721888 0.07606515
000130 87 21 c4 be 9e 53 41 be 00 dc 30 bb 99 2a ba 3e
       -0.3830683 -0.18879554 -0.00269866 0.36360624
000140 58 d4 3c 3e 5f f3 a3 3d 93 26 6f be 34 5a 9b 3e
       0.18440378 0.08005404 -0.23354559 0.30342257
000150 93 47 a9 bd 53 62 a5 3e db f4 82 bd d5 ab 91 be
       -0.08265605 0.32301578 -0.06394359 -0.2845141
000160 3d 26 f0 3d 70 0f c6 be 07 67 b0 be ea d3 8b be
       0.117260434 -0.38683653 -0.34453604 -0.27310115
000170 4a 71 04 3e c2 89 20 bd c6 5a 41 be 43 e9 b1 be
       0.12933841 -0.039193876 -0.18882284 -0.34748277
000180 6d 6c 89 3c d0 68 55 be c4 39 53 be 83 41 bb 3c
       0.016775334 -0.20840764 -0.20627505 0.022858387
000190 ef ca 4d be 1b 23 9b be 26 5a 03 3e 1b b2 46 bd
       -0.20096944 -0.3030022 0.12827358 -0.0485097
0001a0 db 9b c8 bd ca 0a d1 bd 46 ab ae 3d 32 ac 91 3d
       -0.09795352 -0.10207136 0.085287616 0.07112922
0001b0 53 ee 3b 3d 26 5b e9 3b 73 72 b2 be 89 40 44 be
       0.04588158 0.0071214614 -0.34852943 -0.19165243
0001c0 58 57 82 bf c3 e6 84 3f 54 c0 16 c0 a8 a7 51 40
       -1.0182905 1.0382923 -2.3554888 3.275858
0001d0 e5 c0 24 40 ff 61 38 3d 36 72 94 bf 61 2b 5c bf
       2.5742733 0.04501533 -1.1597354 -0.8600369
0001e0 04 b7 0b 3e 94 9a 95 be da 10 32 be 7e f5 b5 3f
       0.13644034 -0.29219496 -0.17389241 1.4215543
0001f0 6d e3 90 3f 2d 95 76 40 b3 02 b2 bf d0 3f 2e be
       1.1319405 3.852855 -1.3907074 -0.1701653
000200 03 7e b8 3f 11 5b 57 be 1e 1b e7 3f 1b 25 b6 bf
       1.4413456 -0.21030833 1.805515 -1.4230074
000210 5a d7 1e c0 d6 2f 45 be 1d 6a 9f 3f 6a e4 21 3f
       -2.481894 -0.19256529 1.2454258 0.6323916
000220 f4 23 a6 3e 0d 46 b3 be 7f 24 ba 3a ac 8f 99 bf
       0.32449305 -0.35014382 0.001420155 -1.199697
000230 03 99 dc be 29 79 13 c0 80 f9 85 3f 65 35 bc bd
       -0.4308549 -2.30427 1.0466766 -0.09189872
000240 cc 47 95 3f 53 72 3b bd 5c c2 12 40 6b 71 d2 bf
       1.1662536 -0.045763325 2.2931128 -1.6440862
000250 df 40 09 c0 6e 12 44 bd 05 ee 8c 3f 2d 4d 75 3d
       -2.1445844 -0.04786914 1.1010138 0.059888054
000260 7c 5f 21 3d 36 71 68 bd 8d bf e7 be 23 04 95 bf
       0.0393977 -0.05674859 -0.4526333 -1.1641887
000270 fd d4 5b bf b0 58 20 c0 28 ea 25 3f b4 81 6a be
       -0.8587187 -2.505413 0.6481042 -0.2290104
000280 ba 56 98 3e 9c 03 ee bd fe ea 25 be 81 b3 02 3d
       0.29753667 -0.11621782 -0.16202924 0.03190947
000290 9d 12 4f 3e 25 e5 3c be b5 bb af 3e 06 bc 24 3d
       0.20221944 -0.18446787 0.34322897 0.040218376
0002a0 62 23 84 bd 03 d9 16 be 5a 59 cb be dd 89 8c 3e
       -0.06452061 -0.14731221 -0.39716607 0.2744893
0002b0 61 6b af 3e 85 a0 96 bd cd ec 13 bf f0 cb 95 3d
       0.3426161 -0.073548354 -0.57783204 0.073142886
0002c0 77 b6 7c 3f 96 2c 49 bf 64 e5 ee 3f 4d 82 6e bf
       0.9871592 -0.7858366 1.8663754 -0.93167573
0002d0 86 4b 23 c0 b6 6e f9 bc fe 74 d1 3f 1c 4e d7 3b
       -2.5514846 -0.030448299 1.6363828 0.0065705907
0002e0 75 e4 a9 3e 42 8f 26 be d0 a4 25 3e e1 a0 9a bf
       0.3318211 -0.16265586 0.16176152 -1.2080346
0002f0 79 c7 45 bf 90 7b 34 c0 e3 f3 ab 3f 1f db cc be
       -0.77257496 -2.8200417 1.3433803 -0.40010926
000300 19 c2 43 3f 04 00 f2 be 1d 6f 06 40 a3 18 d4 bf
       0.76468045 -0.47265637 2.1005318 -1.6570019
000310 8c b9 09 c0 87 e7 82 be fb 7b a0 3f a0 26 1d 3f
       -2.15195 -0.25567266 1.2537836 0.6138706
000320 e1 51 cd 3b e9 58 ba be 25 36 4f 3e 26 b3 33 bf
       0.0062658642 -0.36395958 0.20235498 -0.70195234
000330 e7 67 a9 be 99 f4 31 c0 58 dc 87 3f da 3c bc be
       -0.33087084 -2.780554 1.0614119 -0.36765176
000340 24 c9 a7 3f 87 e8 61 bf 58 2d 13 40 ff c2 a8 bf
       1.3108258 -0.88245434 2.2996426 -1.3184508
000350 a6 bc ec bf 69 f2 40 be 36 52 b0 3f 7a f1 26 3f
       -1.8495071 -0.18842472 1.3775089 0.65212214
000360 f7 1a 87 3d d5 ae 13 be b2 f5 08 3d 09 76 88 bf
       0.0659694 -0.14422162 0.03343744 -1.0661021
000370 61 54 22 bf 8b 70 11 c0 58 d8 80 3f fe 41 c3 be
       -0.6341 -2.272494 1.0066023 -0.38136286
000380 1e 1f d9 bf 84 39 7e 3f 72 ac 33 c0 76 fb 0a 40
       -1.6962621 0.9930651 -2.8074002 2.171598
000390 86 c4 59 40 15 58 35 3e bc 0c e6 bf 5f 1f 84 bf
       3.4026198 0.17709382 -1.7972636 -1.0322074
0003a0 d4 2e 04 bc 19 f3 8b 3e 2a ae 37 3b 0f dd 99 3f
       -0.008067805 0.27333906 0.0028027394 1.2020587
0003b0 37 69 ba 3f 13 7d 81 40 cd 50 27 bf ac 56 24 3e
       1.4563359 4.046518 -0.6535767 0.16048688
0003c0 3a e4 cd bf 0b da a9 3f b2 09 3f c0 25 62 17 40
       -1.6085274 1.3269666 -2.9849668 2.3653653
0003d0 38 fd 50 40 72 d6 70 3d cc 08 d7 bf 92 b5 3a bf
       3.2654552 0.05879826 -1.679956 -0.72933304
0003e0 cc b1 ef bb ea a7 b8 3e 4f 93 8e bd 18 1c b1 3f
       -0.007314896 0.36065608 -0.06961691 1.3836699
0003f0 69 ca 87 3f d9 dc 82 40 cd 31 a6 bf b5 28 05 3f
       1.0608646 4.089459 -1.2983948 0.5201524

sequential_10/dense_21/MatMul f4 [2, 16]
000000 d7 79 07 c0 a6 a7 62 3c 5a bf b5 3e a5 c2 d8 3f
       -2.1168115 0.013833916 0.35497552 1.6934401
000010 80 ca ad 3b a9 32 d0 3e 33 74 c8 3e ab 49 f8 bf
       0.005303681 0.4066365 0.39151153 -1.9397482
000020 92 f2 f7 3f a8 45 f9 3f d0 67 87 3e 4d 23 ce 3f
       1.9370902 1.9474382 0.2644639 1.6104523
000030 60 f3 ed 3f 92 4e c0 3f 6d f2 5a c0 e4 3f 2b c0
       1.8589897 1.5023978 -3.4210465 -2.6757746
000040 5f 49 14 40 99 85 d1 3e 8e be 86 3e bd b7 c8 bf
       2.3169782 0.4092224 0.26317257 -1.5681072
000050 6a dd c9 be 3a f1 bd 3e e3 af 05 3f f8 67 03 40
       -0.39426738 0.37098104 0.52221507 2.0532207
000060 94 c6 97 bf 64 14 ed bf 8a b1 9c 3e 19 45 c3 bf
       -1.1857476 -1.8521848 0.30604202 -1.5255462
000070 57 dd 86 bf da 11 db bf ff ae 37 40 3f cb 36 40
       -1.0536298 -1.7114823 2.870056 2.8561552
